…
2019-01-23 04:28:49,013:INFO: batchnorm will NOT be applied in MLP.
2019-01-23 04:28:49,013:INFO: Dropout will NOT be used in MLP.
2019-01-23 04:28:49,014:INFO: batchnorm will NOT be applied in MLP.
2019-01-23 04:28:49,014:INFO: Dropout will NOT be used in MLP.
2019-01-23 04:28:49,014:INFO: batchnorm will NOT be applied in MLP.
2019-01-23 04:28:49,015:INFO: Dense layer dropout: 0.0
2019-01-23 04:28:49,015:INFO: User indicated: epsilon_tunable = True
2019-01-23 04:28:49,015:INFO: Epsilon_k WILL be LEARNED via backprop
2019-01-23 04:28:49,015:INFO: It is initialized to zero
2019-01-23 04:28:49,015:INFO: GinMultiGraph(
  (raw_embedding_layer): MLP(
    (layer_0): Linear(in_features=1, out_features=16, bias=True)
    (layer_1): Linear(in_features=16, out_features=16, bias=True)
    (layer_2): Linear(in_features=16, out_features=16, bias=True)
  )
  (agg_0): MLP(
    (layer_0): Linear(in_features=16, out_features=16, bias=True)
    (layer_1): Linear(in_features=16, out_features=16, bias=True)
    (layer_2): Linear(in_features=16, out_features=16, bias=True)
  )
  (agg_1): MLP(
    (layer_0): Linear(in_features=16, out_features=16, bias=True)
    (layer_1): Linear(in_features=16, out_features=16, bias=True)
    (layer_2): Linear(in_features=16, out_features=16, bias=True)
  )
  (agg_2): MLP(
    (layer_0): Linear(in_features=16, out_features=16, bias=True)
    (layer_1): Linear(in_features=16, out_features=16, bias=True)
    (layer_2): Linear(in_features=16, out_features=16, bias=True)
  )
  (agg_3): MLP(
    (layer_0): Linear(in_features=16, out_features=16, bias=True)
    (layer_1): Linear(in_features=16, out_features=16, bias=True)
    (layer_2): Linear(in_features=16, out_features=16, bias=True)
  )
  (agg_4): MLP(
    (layer_0): Linear(in_features=16, out_features=16, bias=True)
    (layer_1): Linear(in_features=16, out_features=16, bias=True)
    (layer_2): Linear(in_features=16, out_features=16, bias=True)
  )
  (last_linear): Linear(in_features=81, out_features=10, bias=True)
  (dense_layer_dropout): Dropout(p=0.0)
  (epsilons): ParameterList(
      (0): Parameter containing: [torch.FloatTensor of size 1]
      (1): Parameter containing: [torch.FloatTensor of size 1]
      (2): Parameter containing: [torch.FloatTensor of size 1]
      (3): Parameter containing: [torch.FloatTensor of size 1]
      (4): Parameter containing: [torch.FloatTensor of size 1]
…
